epoch98.pt (torch, 135389 bytes, 16 tensors)

CONV.0.weight f4 [64, 1, 3, 3]
-0.21932611 0.0038177057 -0.11029017 -0.1261471 -0.17166911 0.08614695 -0.12630706 0.0851007
-0.12103543 -0.004252665 0.26091266 0.22698446 -0.046127684 -0.23387465 0.213122 0.14869228
0.06534804 -0.2185626 -0.29989037 0.17892464 -0.19441827 0.15785924 0.052834958 -0.33284655
0.2321395 0.15055482 -0.26215753 0.2902113 0.2654128 0.31925556 0.087052636 -0.23395336
-0.019355547 -0.083284885 -0.13270986 -0.08691268 0.28781274 -0.28508276 -0.11558213 -0.08909534
0.14526828 0.11132196 0.28443038 0.09100439 0.21437258 0.11694282 -0.1906513 0.070070796
0.3016861 0.06395795 -0.12950052 -0.08682995 0.062064614 -0.20905001 -0.19031282 -0.18116924
0.072412774 -0.008318192 0.08484787 0.0736699 0.0748216 0.21189392 -0.12707783 0.24983329
0.20638032 0.1601119 0.17708984 0.29587114 -0.23400196 -0.12997892 0.03942207 -0.024159849
-0.1682131 0.025602262 0.2896362 0.08147359 -0.23397121 0.11401558 -0.24899293 0.031161569
0.12501456 -0.16392598 -0.20008878 -0.1959002 -0.043635003 0.09068011 -0.17426565 -0.25594243
0.120208465 0.21726088 -0.053792424 -0.16334836 -0.22137344 -0.054635856 -0.01325035 -0.19236189
-0.030851671 0.055881795 -0.23913036 -0.13787803 -0.3118537 0.24660166 0.030303165 -0.1573821
-0.19465852 0.029850315 0.1570425 0.3206869 -0.0328297 0.242749 0.25352082 -0.005094289
-0.047633633 0.17227833 0.03502009 0.233669 0.2768261 -0.014554555 -0.11021368 -0.09186663
-0.20719784 0.052750178 -0.30662566 0.043314226 0.076231286 -0.18661414 -0.32040212 -0.16049273
-0.31499693 -0.07948613 0.29929313 0.32926494 0.07124747 -0.21291989 0.09978264 -0.23684852
-0.20891811 -0.10186957 0.10871496 0.25192964 0.17357306 0.051632468 -0.19041975 0.14703257
0.1656846 -0.11107728 0.21978818 0.25763905 -0.10959062 0.043077644 0.14031611 0.13370241
-0.14689727 0.17530413 -0.077696405 0.095897555 0.2507873 -0.026120339 -0.0833631 -0.01504815
-0.19080839 -0.04089204 0.052941896 -0.04986062 -0.18714568 0.27419662 -0.3245804 -0.21429196
-0.16057496 -0.10148041 0.07578154 -0.08014537 0.24167603 -0.04415008 -0.2949637 0.15160336
0.11660022 -0.026762992 0.004556834 -0.07516089 0.07146273 0.10775306 0.20674749 -0.12097881
-0.26151907 -0.082662724 -0.30366644 -0.21538721 -0.25361365 0.027376894 -0.2362975 0.12223026
0.028837705 0.07901254 -0.06338777 -0.21878593 0.29927278 -0.18512097 -0.20862631 -0.28601366
-0.31863093 0.31598338 -0.07027016 0.16273493 0.09986463 -0.02932726 -0.16405551 0.004775484
-0.03440061 0.0394677 -0.12324088 -0.30781218 0.06291242 0.19931386 0.29745585 -0.08861889
-0.12675898 -0.06741767 -0.24946938 0.12623379 -0.005326926 0.0829952 -0.18333066 0.042514376
0.15281178 0.25446722 0.012264533 0.030004548 -0.29063532 0.09880386 0.050408777 -0.0123649705
0.04676134 0.19811541 -0.3063704 0.24550262 -0.13398509 -0.1584401 0.15428977 -0.11348037
0.045192715 -0.21730116 -0.07499969 0.06331317 -0.11027389 5.385437e-05 0.054306854 -0.031452995
-0.241936 -0.17056456 0.28157502 0.29663822 0.0885871 0.08255363 -0.17019187 -0.1549248
00000000: 0697 60be 7932 7a3b d0df e1bd b52c 01be
00000010: 07ca 2fbe d06d b03d a356 01be 4749 ae3d
00000020: 6ce1 f7bd f159 8bbb 5896 853e 9d6e 683e
00000030: 62f0 3cbd d67c 6fbe a73c 5a3e ca42 183e
00000040: 31d5 853d e0ce 5fbe 3b8b 99be 0538 373e
00000050: 9515 47be daa5 213e 7869 583d dd6a aabe
00000060: fab5 6d3e 0b2b 1a3e 8339 86be 9396 943e
00000070: 30e4 873e 7775 a33e a748 b23d 7891 6fbe
00000080: 868f 9ebc 4491 aabd 18e5 07be 46ff b1bd
00000090: 315c 933e 5ef6 91be 53b6 ecbd 9e77 b6bd
000000a0: 35c1 143e c5fc e33d dca0 913e 8260 ba3d
000000b0: 7c84 5b3e b87f ef3d 183a 43be 4781 8f3d
000000c0: 9a76 9a3e 63fc 823d c99b 04be e7d3 b1bd
000000d0: 7737 7e3d 3511 56be 5de1 42be 6e84 39be
000000e0: 264d 943d 0749 08bc b8c4 ad3d 3fe0 963d
000000f0: 113c 993d b8fa 583e b120 02be 4cd4 7f3e
00000100: 5d55 533e 60f4 233e 0a57 353e 6c7c 973e
00000110: 369e 6fbe 3219 05be 0979 213d e0ea c5bc
00000120: 0e40 2cbe d6bb d13c 324b 943e a0db a63d
00000130: 2696 6fbe 0081 e93d 01f8 7ebe 8c46 ff3c
00000140: d103 003e 36dc 27be 13e4 4cbe 109a 48be
00000150: 9eba 32bd 7eb6 b93d b272 32be e30a 83be
00000160: db2f f63d a379 5e3e 7255 5cbd cb44 27be
00000170: b8af 62be d9c9 5fbd ff17 59bc 84fa 44be
00000180: a5bc fcbc 4fe4 643d 97de 74be e62f 0dbe
00000190: 4aab 9fbe 2585 7c3e 583e f83c c628 21be
000001a0: 9054 47be a688 f43c c0cf 203e 1331 a43e
000001b0: 6f78 06bd 3293 783e 7bcd 813e feed a6bb
000001c0: 7c1b 43bd bb69 303e 3a71 0f3d ed46 6f3e
000001d0: 27bc 8d3e 3a76 6ebc b6b7 e1bd 9224 bcbd
000001e0: ac2b 54be 9210 583d 0afe 9cbe 426a 313d
000001f0: 261f 9c3d c717 3fbe bf0b a4be 3558 24be
00000200: 4747 a1be a0c9 a2bd f33c 993e 6a95 a83e
00000210: 32ea 913d ac07 5abe d75a cc3d 6b88 72be
00000220: a1ee 55be fea0 d0bd f3a5 de3d ecfc 803e
00000230: 23bd 313e 917c 533d 65fd 42be b58f 163e
00000240: 39a9 293e 7c7c e3bd 2710 613e 44e9 833e
00000250: 0c71 e0bd 2f72 303d 07af 0f3e 49e9 083e
00000260: 3d6c 16be ed82 333e 4b1f 9fbd f065 c43d
00000270: 3167 803e 52fa d5bc 46ba aabd 848c 76bc
00000280: 4663 43be 697e 27bd 9ad9 583d a63a 4cbd
00000290: 1ea3 3fbe 8063 8c3e 672f a6be 5a6f 5bbe
000002a0: c36d 24be f6d4 cfbd 5a33 9b3d 4123 a4bd
000002b0: ec79 773e b7d6 34bd 7b05 97be e93d 1b3e
000002c0: 19cc ee3d 103e dbbc 7f51 953b f4ed 99bd
000002d0: 0d5b 923d a3ad dc3d 9db5 533e bdc3 f7bd
000002e0: d4e5 85be 134b a9bd 2b7a 9bbe 778e 5cbe
000002f0: a6d9 81be 8245 e03c f9f7 71be dc53 fa3d
00000300: 0d3d ec3c 54d1 a13d 72d1 81bd 6b09 60be
00000310: 483a 993e 5a90 3dbe 23a2 55be 6270 92be
00000320: 9823 a3be 93c8 a13e cde9 8fbd fca3 263e
00000330: d485 cc3d b93f f0bc 2bfe 27be aa7b 9c3b
00000340: a7e7 0cbd e2a8 213d b765 fcbd 8f99 9dbe
00000350: 3ad8 803d ef18 4c3e 224c 983e d27d b5bd
00000360: 1bcd 01be 4612 8abd e774 7fbe 6e43 013e
00000370: 7e8d aebb 63f9 a93d 08bb 3bbe 8e23 2e3d
00000380: b17a 1c3e 8749 823e 2ef1 483c 19cc f53c
00000390: 27ce 94be ae59 ca3d 6f79 4e3d 7296 4abc
000003a0: d288 3f3d c4de 4a3e 95dc 9cbe 0a65 7b3e
000003b0: 6333 09be 1f3e 22be 23fe 1d3e 6568 e8bd
000003c0: ff1b 393d 3284 5ebe 7099 99bd 56aa 813d
000003d0: 47d7 e1bd b1e1 6138 dd70 5e3d dbd4 00bd
000003e0: 12be 77be 7aa8 2ebe 9a2a 903e f7e0 973e
000003f0: 276d b53d e111 a93d c746 2ebe 9ba4 1ebe

CONV.0.bias f4 [64]
-0.2935973 -0.0011778888 0.021162225 -0.07129987 -0.2669203 -0.03183665 -0.1760903 -0.28154776
0.21110001 0.13304503 0.17847218 -0.24515638 -0.22725937 -0.02495989 -0.16212843 0.22298859
-0.33289692 0.29012647 -0.26499224 -0.20276575 0.20151064 -0.119494356 0.3318873 0.08175537
0.006292613 -0.13153972 -0.09887552 -0.3020083 0.049435027 0.280718 0.056501567 -0.3160028
-0.17016369 -0.13658541 0.32551548 0.024032522 -0.2273779 -0.07134179 0.13123104 -0.3013613
0.21152523 -0.2921485 -0.048034657 -0.31859738 -0.27020246 0.23432897 -0.10385774 -0.27191317
0.3111615 0.0637911 0.27018014 -0.26512235 0.19020674 0.0031186426 0.19632514 0.24978903
-0.055906214 -0.2914267 0.1828235 0.089297205 0.0805168 0.32846853 -0.15035413 -0.1605265
00000000: 6352 96be 6463 9aba 675c ad3c ab05 92bd
00000010: c7a9 88be 2667 02bd 0451 34be 0727 90be
00000020: 9a2a 583e f53c 083e 69c1 363e 460a 7bbe
00000030: aeb6 68be af78 ccbc ff04 26be 1f57 643e
00000040: 7771 aabe 758b 943e 10ad 87be d3a1 4fbe
00000050: ce58 4e3e 75b9 f4bd 22ed a93e 5c6f a73d
00000060: 4432 ce3b 59b2 06be 407f cabd d5a0 9abe
00000070: 627c 4a3d 45ba 8f3e 306e 673d 1ecb a1be
00000080: 643f 2ebe 0cdd 0bbe f7a9 a63e dadf c43c
00000090: c1d5 68be a51b 92bd 6e61 063e 074c 9abe
000000a0: 129a 583e 7d94 95be fdbf 44bd 321f a3be
000000b0: fa57 8abe eff3 6f3e 5eb3 d4bd 3438 8bbe
000000c0: 8f50 9f3e e9a4 823d 0d55 8a3e 1ebe 87be
000000d0: 8ec5 423e 2462 4c3b 7509 493e b2c8 7f3e
000000e0: eafd 64bd e135 95be 1536 3b3e 74e1 b63d
000000f0: fee5 a43d 072d a83e 6ff6 19be 0f61 24be

CONV.1.running_mean f4 [64]
-0.29788226 0.00091900304 0.023851162 -0.067819715 -0.26732466 -0.028149672 -0.17661779 -0.27153546
0.20782164 0.12832817 0.17586169 -0.253283 -0.22489068 -0.02762072 -0.16399442 0.22207816
-0.32978338 0.29208556 -0.26896292 -0.2006416 0.19894819 -0.11849429 0.329952 0.07800233
0.004754904 -0.1316028 -0.099011794 -0.30419052 0.05160182 0.28479636 0.056072794 -0.31065178
-0.17316642 -0.13589871 0.32690722 0.020593166 -0.23029648 -0.07077153 0.12597257 -0.30438352
0.20634393 -0.28606924 -0.037612803 -0.32789284 -0.27093658 0.22571501 -0.096801765 -0.27249622
0.3149621 0.07460588 0.2718618 -0.2703037 0.18915886 0.0027446821 0.19793841 0.24579862
-0.055600997 -0.2860264 0.18589915 0.093780644 0.06949203 0.327638 -0.15054949 -0.1580992
00000000: 0684 98be 40e9 703a 8363 c33c 10e5 8abd
00000010: c7de 88be 249a e6bc 4bdb 34be b206 8bbe
00000020: 32cf 543e 7668 033e 1615 343e 4fae 81be
00000030: be49 66be d944 e2bc 27ee 27be 7568 633e
00000040: 5ed9 a8be 3d8c 953e 82b5 89be fe74 4dbe
00000050: 13b9 4b3e 22ad f2bd 78ef a83e b0bf 9f3d
00000060: 07cf 9b3b e2c2 06be b2c6 cabd dcbe 9bbe
00000070: 6e5c 533d d4d0 913e 96ac 653d c00d 9fbe
00000080: 8a52 31be 0829 0bbe 6260 a73e 00b3 a83c
00000090: d7d2 6bbe aaf0 90bd f4fe 003e 28d8 9bbe
000000a0: d34b 533e ab77 92be e20f 1abd 92e1 a7be
000000b0: 33b8 8abe d621 673e 0140 c6bd a084 8bbe
000000c0: b642 a13e f8ca 983d 7831 8b3e 3f65 8abe
000000d0: dcb2 413e 20e0 333b 5eb0 4a3e a2b2 7b3e
000000e0: dfbd 63bd 0d72 92be 595c 3e3e 1110 c03d
000000f0: d651 8e3d 2bc0 a73e a529 1abe c2e4 21be

CONV.1.running_var f4 [64]
0.40739658 0.15934628 0.14436975 0.23696283 0.378973 0.029314885 0.024639089 0.5292607
0.04667551 0.33620688 0.6978027 0.064883105 1.069006 0.47686735 0.12362195 0.040336654
0.29612994 0.036745146 0.37526062 0.01840756 0.7394466 0.017546348 0.25520694 0.022664646
0.060271803 0.12800607 0.24757229 0.040395766 0.015018449 0.8843 0.06664014 1.3594116
0.109172344 0.06750744 0.108987376 0.7454855 0.00914545 0.21820788 0.2983739 0.08864629
0.05141971 0.07107066 0.45015547 2.6112092 0.108424164 0.66421324 0.25717157 0.044755258
0.022116432 0.6013263 0.2902542 0.7125571 0.6551284 0.33063117 0.009485827 0.19194075
0.15085115 0.36079893 0.19642873 2.0180326 0.838024 0.03248184 0.07124115 0.1430079
00000000: 4996 d03e ac2b 233e aad5 133e 62a6 723e
00000010: c008 c23e c525 f03c ead7 c93c a17d 073f
00000020: d22e 3f3d 4f23 ac3e 33a3 323f 6fe1 843d
00000030: 30d5 883f f527 f43e 812d fd3d 0c38 253d
00000040: 589e 973e 1482 163d 2922 c03e 74cb 963c
00000050: 5f4c 3d3f 5cbd 8f3c 7caa 823e 35ab b93c
00000060: 91df 763d 0614 033e 9783 7d3e 0876 253d
00000070: f10f 763c 7c61 623f a07a 883d 3301 ae3f
00000080: c095 df3d 5741 8a3d c634 df3d 23d8 3e3f
00000090: ccd6 153c e371 5f3e 77c4 983e 308c b53d
000000a0: 799d 523d 7f8d 913d c77a e63e 0d1e 2740
000000b0: 7d0d de3d e109 2a3f feab 833e 4a51 373d
000000c0: 852d b53c 85f0 193f 339c 943e 246a 363f
000000d0: 7fb6 273f 7d48 a93e 716a 1b3c 1e8c 443e
000000e0: b978 1a3e a3ba b83e 9d24 493e 7227 0140
000000f0: be88 563f ae0b 053d e1e6 913d aa70 123e

CONV.4.weight f4 [32, 64, 3, 3]
-0.0105292285 -0.01571066 -0.035787463 0.02249505 0.029718004 -0.023182014 -0.019621024 0.031806063
0.028120782 0.037786745 0.00056938233 0.035762627 0.010522287 -0.003864512 -0.021440482 0.043559276
0.04574374 0.02636736 0.01677282 0.029363599 -0.033733048 -0.008488937 -0.021664916 -0.04612739
0.043378945 0.020311095 0.012293653 -0.02835647 -0.0113362335 -0.0016131146 -0.032751724 -0.036714073
-0.003691363 -0.021701587 -0.03217785 -0.036462538 0.0073492117 0.0040478013 0.0034894955 0.03406206
0.016105438 0.012247963 0.014677235 0.028889133 0.024203802 0.009244093 0.011988777 0.0050859824
0.017736442 0.03606181 0.030217074 -0.011807347 0.010254815 0.0058979406 -0.026073826 -0.035546653
-0.017952075 -0.020330876 0.024786357 -0.02812932 -0.013806381 0.008453373 0.0003258227 0.02962714
-0.034602717 -0.013254738 0.033333182 0.020047415 0.009988477 -0.008923646 -0.0020832818 -0.005647145
-0.02329454 0.001451818 0.025666757 0.010407611 -0.029607598 0.0036193035 -0.032556348 0.033275697
0.035490964 0.030366937 0.016182031 0.03160602 0.009070772 -0.02350723 0.020026358 0.0042586615
-0.037262384 0.043444693 0.030262047 0.020577725 0.021441841 0.0145572815 0.01073838 0.025345009
-0.017509827 0.003040392 0.024349988 0.037394 -0.004057539 0.011101156 0.014864972 0.028466944
0.023928585 -0.0019107638 0.0147535065 0.036717463 -0.0066324924 -0.013227055 -0.042305253 -0.032263238
0.023505997 -0.0017816826 -0.03282335 0.0074411677 -0.015449087 -0.011306814 0.028270068 0.01247547
-0.02379234 0.0016865872 -0.030770287 -0.018711068 0.0119038625 -0.0071511497 -0.03266534 0.004417703
0.00028730623 -0.02701965 -0.014247113 0.042772476 0.036554735 -0.012390002 0.017386006 -0.02484387
-0.004187018 -0.023595808 0.037952386 0.0048586824 -0.02776276 0.03301193 0.002038337 0.008332226
0.03518364 0.03160924 -0.024074174 0.0009338786 0.0050712493 0.042057246 -0.0157499 0.000636627
0.022978157 0.025080571 -0.01386592 0.005844906 0.0092903515 0.039128978 0.045476347 0.030161172
-0.03592607 -0.03521687 0.0048733205 -0.0005497356 -0.004488459 0.035848103 0.01871582 -0.012553191
-0.02718975 -0.037271883 0.026643582 0.002989373 -0.017053034 0.016159574 0.029181939 0.039828073
0.008115449 0.011891135 -0.009867657 0.0046562385 0.02935613 -0.024706304 -0.016826348 -0.037428148
-0.029022407 0.0101411445 -0.0019554407 0.01100191 -0.019624824 0.0014591394 -0.029068245 0.04225196
-0.0028649713 -0.01313407 0.005503173 0.054545414 0.007104075 0.025549408 -0.030950706 0.028573897
0.0034925179 0.017553635 -0.013790804 0.011376978 0.039935227 -0.00041706048 0.018869935 0.026558496
-0.010471425 -0.014522395 0.021005027 0.0037591192 0.008520056 -0.001103788 0.01232128 -0.0033864498
-0.003020512 -0.003782804 0.0017015148 -0.033559434 -0.03237437 -0.0358711 -0.015672639 -0.0021492334
-0.028061472 0.016874062 -0.00484801 -0.01471788 -0.017887408 0.021618905 0.024847308 0.044608325
0.02539227 0.014401593 -0.02128273 -0.026764093 0.030180335 0.038299408 -0.018517205 -0.026941027
-0.036847465 -0.022915784 -0.030009221 0.025288876 -0.042247448 -0.037293825 0.024078228 0.026954224
0.018772742 -0.010742683 -0.03167698 0.010329458 0.027221706 -0.036853485 -0.0059728553 0.023072964
00000000: c982 2cbc a4b3 80bc e095 12bd 8a47 b83c
00000010: 2c73 f33c 35e8 bdbc 45bc a0bc 1347 023d
00000020: 8e5d e63c 46c6 1a3d 9a42 153a d57b 123d
00000030: ac65 2c3c c143 7dbb f3a3 afbc 366b 323d
00000040: ca5d 3b3d 5d00 d83c 2767 893c ee8b f03c
00000050: aa2b 0abd 2f15 0bbc 9f7a b1bc 13f0 3cbd
00000060: 1fae 313d 7463 a63c 516b 493c d44b e8bc
00000070: 9cbb 39bc 256f d3ba ac26 06bd 7f61 16bd
00000080: cbea 71bb 87c7 b1bc eccc 03bd be59 15bd
00000090: a8d1 f03b 6ba3 843b 05b0 643b a984 0b3d
000000a0: 8def 833c aeab 483c c978 703c e7a8 ec3c
000000b0: 0d47 c63c 8974 173c 936c 443c 50a8 a63b
000000c0: 044c 913c 8cb5 133d cc89 f73c 9a73 41bc
000000d0: d003 283c 8343 c13b c798 d5bc 5e99 11bd
000000e0: 3b10 93bc f08c a6bc c20c cb3c 766f e6bc
000000f0: 2934 62bc 0480 0a3c 2fd3 aa39 9eb4 f23c
00000100: 94bb 0dbd 672a 59bc 6088 083d 7a3a a43c
00000110: b6a6 233c 7c34 12bc ab87 08bb b00b b9bb
00000120: 31d4 bebc ee4a be3a 1743 d23c af84 2a3c
00000130: a28b f2bc d631 6d3b ce59 05bd 194c 083d
00000140: f95e 113d 15c4 f83c 2e90 843c 5075 013d
00000150: 939d 143c 3c92 c0bc 510e a43c 3e8c 8b3b
00000160: 71a0 18bd 10f3 313d 1de8 f73c 9e92 a83c
00000170: cda6 af3c aa81 6e3c 08f0 2f3c 56a0 cf3c
00000180: c570 8fbc 5041 473b a079 c73c 732a 193d
00000190: 1bf5 84bb 9fe1 353c 368c 733c 8233 e93c
000001a0: e105 c43c 9872 faba b1b8 713c 0d65 163d
000001b0: 6155 d9bb 4ab6 58bc 4648 2dbd 7526 04bd
000001c0: a68f c03c 5987 e9ba c771 06bd 0ad5 f33b
000001d0: 2b1e 7dbc 3740 39bc a196 e73c ea65 4c3c
000001e0: 27e8 c2bc 7a10 dd3a f811 fcbc f447 99bc
000001f0: 6b08 433c 3154 eabb 17cc 05bd 61c2 903b
00000200: 97a1 9639 5058 ddbc b96c 69bc 3132 2f3d
00000210: 6bba 153d 6fff 4abc 196d 8e3c 5f85 cbbc
00000220: 4133 89bb ff4b c1bc f673 1b3d 9535 9f3b
00000230: ba6e e3bc 8437 073d 9f95 053b e483 083c
00000240: b81c 103d b178 013d 3437 c5bc 88cf 743a
00000250: b92c a63b 3844 2c3d ef05 81bc 51e3 263a
00000260: b03c bc3c c575 cd3c e22d 63bc a086 bf3b
00000270: 8f36 183c b545 203d 6845 3a3d 9014 f73c
00000280: 3727 13bd 913f 10bd 60b0 9f3b 221c 10ba
00000290: ec13 93bb 76d5 123d eb51 993c e6ab 4dbc
000002a0: 0abd debc 67aa 18bd a443 da3c 5be9 433b
000002b0: ceb2 8bbc 1561 843c f60e ef3c c322 233d
000002c0: a9f6 043c 09d3 423c f4ab 21bc 5c93 983b
000002d0: 447c f03c e064 cabc 69d7 89bc 424e 19bd
000002e0: 66c0 edbc 0b27 263c da26 00bb 5b41 343c
000002f0: 3dc4 a0bc 9840 bf3a 8720 eebc 6410 2d3d
00000300: 3ec2 3bbb 4830 57bc f653 b43b 036b 5f3d
00000310: 4dc9 e83b fe4c d13c 568c fdbc ce13 ea3c
00000320: bae2 643b a4cc 8f3c d3f2 61bc 8166 3a3c
00000330: 1f93 233d e9a8 dab9 1f95 9a3c 3491 d93c
00000340: 5790 2bbc 57ef 6dbc bc12 ac3c 8e5b 763b
00000350: b497 0b3c fbac 90ba 32df 493c 33ef 5dbb
00000360: c8f3 45bb ebe8 77bb 5d05 df3a 9e75 09bd
00000370: fd9a 04bd 93ed 12bd e863 80bc 27da 0cbb
00000380: 2ce1 e5bc 793b 8a3c 0edc 9ebb 4323 71bc
00000390: 9d88 92bc 211a b13c 958c cb3c 38b7 363d
000003a0: 7303 d03c a9f4 6b3c 1f59 aebc 5f40 dbbc
000003b0: c03c f73c d7df 1c3d 65b1 97bc 6eb3 dcbc
000003c0: 5eed 16bd e2b9 bbbc e6d5 f5bc 9e2a cf3c
000003d0: a90b 2dbd 69c1 18bd b43f c53c 1bcf dc3c
000003e0: 4bc9 993c 1402 30bc b9bf 01bd e33c 293c
000003f0: 0e00 df3c aef3 16bd f1b7 c3bb 8303 bd3c

CONV.4.bias f4 [32]
-0.031623423 0.031061169 0.030418945 -0.0016803405 8.7879474e-05 0.031651326 -0.03607541 -0.013003732
-0.02905499 -0.005385205 0.013566074 -0.00762608 0.03700602 -0.03323026 0.00057150284 -0.022158518
0.021780666 -0.039138686 0.026390933 -0.009478576 0.026419962 -0.022321556 0.012530803 -0.029550696
-0.018245101 -0.009397583 -0.023589509 0.0064026313 -0.016493348 -0.024610126 -0.024686689 -0.019201593
00000000: 9087 01bd fe73 fe3c 2731 f93c df3e dcba
00000010: ef4b b838 d2a4 013d cfc3 13bd 9b0d 55bc
00000020: bb04 eebc 6076 b0bb 3d44 5e3c 32e4 f9bb
00000030: a093 173d 741c 08bd e8d0 153a c885 b5bc
00000040: 5e6d b23c e34f 20bd cc31 d83c 074c 1bbc
00000050: ad6e d83c b2db b6bc ff4d 4d3c 4d14 f2bc
00000060: c076 95bc 52f8 19bc c93e c1bc 2acd d13b
00000070: 0f1d 87bc 2d9b c9bc bd3b cabc a94c 9dbc

CONV.5.running_mean f4 [32]
0.64756805 0.0057597375 -0.4018404 0.65416825 -0.32379192 -0.4003189 -0.853698 0.095883004
-0.40078872 -0.12082047 -0.28100756 -0.36360154 -0.26410526 -0.79838 -0.23078966 -0.54850304
-0.45865372 -0.33853456 -0.46749637 -0.3307695 -0.3197303 -0.47150135 -0.027527103 -0.41015753
0.3160434 -0.37428448 -0.17395079 -0.45219636 -0.28863165 0.25359187 -0.3300429 -0.106932156
00000000: 05c7 253f 2ebc bc3b 06be cdbe 9277 273f
00000010: 0ec8 a5be 99f6 ccbe f48b 5abf 4f5e c43d
00000020: 2e34 cdbe b970 f7bd 39e0 8fbe fb29 babe
00000030: ce38 87be a262 4cbf 2054 6cbe b26a 0cbf
00000040: a9d4 eabe 6754 adbe af5b efbe 9f5a a9be
00000050: b1b3 a3be a068 f1be 8580 e1bc 2b00 d2be
00000060: 71d0 a13e 37a2 bfbe 2820 32be 4886 e7be
00000070: 87c7 93be cbd6 813e 62fb a8be 3fff dabd

CONV.5.running_var f4 [32]
0.28328627 0.23719387 0.3018159 0.36402938 0.15454093 0.16797592 0.33379728 0.21917821
0.151889 0.06021146 0.09339601 0.082866505 0.12748304 0.30719724 0.12749103 0.1868752
0.2023734 0.098693654 0.33071482 0.2703557 0.16300383 0.21479622 0.3933007 0.14522748
0.40425682 0.1102518 0.09506942 0.16068724 0.09122092 0.28228372 0.21355885 0.06495943
00000000: e60a 913e f3e2 723e 9d87 9a3e 0f62 ba3e
00000010: fa3f 1e3e e101 2c3e 7ae7 aa3e 4170 603e
00000020: ca88 1b3e 4ba0 763d 6846 bf3d eab5 a93d
00000030: ea8a 023e f548 9d3e 028d 023e 365c 3f3e
00000040: f93a 4f3e e61f ca3d 7453 a93e 106c 8a3e
00000050: 7aea 263e 8af3 5b3e b65e c93e 83b6 143e
00000060: c0fa ce3e b2cb e13d c2b3 c23d 328b 243e
00000070: 09d2 ba3d 7e87 903e 2caf 5a3e 7309 853d

CONV.8.weight f4 [16, 32, 3, 3]
-0.026815703 -0.0052104495 -0.010148599 0.0045668343 0.058182802 0.0004707435 -0.001840968 -0.038155183
0.004067708 -0.025698388 -0.04556191 -0.001336156 0.047827367 -0.046509746 0.017782502 -0.0105589
0.02770605 -0.0036644368 0.0086957095 -0.059911165 0.007596529 -0.05815341 0.017866075 -0.039820272
-0.029595988 -0.030021872 -0.028312018 -0.030926866 -0.035865862 0.032989006 -0.010255039 -0.027002981
-0.0579741 -0.021317031 0.06401984 -0.05759274 0.057866145 0.060304113 0.030029023 0.011899814
0.02907565 0.010560314 0.045885436 -0.04171427 -0.025902625 -0.017934376 0.009117996 -0.04199749
0.0705649 0.0030218433 0.044557255 0.10063802 -0.029469138 0.00830628 -0.0094876895 -0.0025315091
-0.029742919 -0.011406986 -0.009445526 0.05516388 -0.028387986 0.033020757 -0.0148216225 -0.04448341
0.04339862 0.004272933 -0.046274934 -0.034362923 0.010976653 -0.04457343 0.041963696 -0.00024506875
0.012662256 -0.01679733 -0.041100506 -0.036585625 0.019326834 -0.0040150685 -0.022202166 0.015093409
0.011643013 -0.006518923 -0.042872325 -0.01727356 0.037736807 -0.012054826 0.004181601 0.017364295
-0.03357982 0.03276233 0.044411324 -0.028575778 -0.030134264 -0.00339441 -0.008475397 -0.0135427425
-0.031720724 0.019017275 0.053961944 -0.008387357 0.03323254 0.03914459 0.00019854958 -0.049547564
-0.013642097 0.05033775 -0.040959872 -0.015640099 0.03989427 -0.053302217 0.03373795 0.024356104
0.02823988 -0.028814299 -0.036184374 0.018286008 -0.030178307 0.012214792 0.03909319 -0.012286048
-0.05554709 -0.05552271 -0.00016380707 -0.024193428 -0.047658093 0.021778533 0.054418202 -0.023786308
-0.031675134 -0.036746155 -0.022272315 0.015007389 0.013814215 -0.012102196 -0.059769187 0.025414567
0.029348496 0.0022583469 -0.034393113 -0.028717613 -0.0067086974 -0.07747485 0.022199208 -0.00020256428
-0.019721963 -0.06409567 0.013024175 0.035847507 0.028674327 0.005395467 -0.015137015 0.022841541
0.023190206 -0.0024033934 -0.038316723 0.070811294 0.011365102 -0.007133297 0.017642003 0.019931303
-0.059112534 0.04654883 -0.008992417 0.010460702 -0.05143188 0.007751451 0.012972178 -0.047707368
-0.00071938033 0.01715082 0.03833583 -0.031774074 -0.041813917 0.009528043 0.0089397505 0.03251746
0.008432977 0.06677659 -0.03556637 -0.04175071 0.062158555 0.049238972 -0.007928723 0.016316796
0.047681585 0.003510039 -0.02508844 -0.0018103152 -0.043086037 -0.037919603 -0.06308804 -0.063656256
-0.015560254 0.03724191 -0.06432946 -0.010783887 -0.0006002809 0.018852588 0.008771347 0.033994008
0.025200218 -0.009561134 0.00729299 0.020217493 -0.015715517 -0.025285676 0.017683048 -0.07608786
-0.00566535 0.027916128 -0.055506095 0.016087022 6.27331e-05 0.02410021 -0.024323983 -0.022415726
-0.012470956 0.032906786 0.0012616822 0.047313683 0.0706656 -0.040668957 -0.029263211 0.009235782
0.042844992 -0.0007672344 0.009995607 0.038229242 0.02224147 0.034511883 -0.08075968 -0.026931066
0.027091295 -0.0039495123 0.047199704 0.05261277 -0.06343928 0.057629626 0.058264237 -0.018129475
0.068676904 0.003431176 0.04870969 0.030705834 0.021240294 0.050681967 -0.033665054 -0.003074197
0.0116011845 -0.025498314 -0.025815876 0.026040295 0.0040505603 -0.044853847 -0.046095666 -0.03080463
00000000: 9bac dbbc 6bbc aabb 4f46 26bc 62a5 953b
00000010: 1751 6e3d 1fce f639 a34c f1ba 9c48 1cbd
00000020: 684a 853b 6d85 d2bc 209f 3abd f521 afba
00000030: a1e6 433d 0181 3ebd 9cac 913c 3dff 2cbc
00000040: ccf7 e23c 0c27 70bb 7378 0e3c 6965 75bd
00000050: 4eec f83b 4532 6ebd e05b 923c 951a 23bd
00000060: 4973 f2bc 6ef0 f5bc 9bee e7bc 575a fdbc
00000070: 15e8 12bd 7b1f 073d c004 28bc 5b35 ddbc
00000080: 4076 6dbd 0ea1 aebc d51c 833d 5de6 6bbd
00000090: 0d05 6d3d 7201 773d 6dff f53c 70f7 423c
000000a0: 0f30 ee3c 2b05 2d3c 5ef2 3b3d 95dc 2abd
000000b0: be31 d4bc 1deb 92bc a663 153c 8f05 2cbd
000000c0: 5584 903d 1e0a 463b ab81 363d 4e1b ce3d
000000d0: 4369 f1bc 1017 083c 4172 1bbc ade7 25bb
000000e0: 6ca7 f3bc 5ee4 3abc 68c1 1abc 85f3 613d
000000f0: ec8d e8bc c640 073d 64d6 72bc 3c34 36bd
00000100: c0c2 313d f603 8c3b c98a 3dbd 23c0 0cbd
00000110: 6bd7 333c a192 36bd 20e2 2b3d 927c 80b9
00000120: 5a75 4f3c 8e9a 89bc 0159 28bd cfda 15bd
00000130: 4f53 9e3c d690 83bb 51e1 b5bc 594a 773c
00000140: 56c2 3e3c b19c d5bb e49a 2fbd 4881 8dbc
00000150: e991 1a3d 9b81 45bc d005 893b 913f 8e3c
00000160: fe8a 09bd cb31 063d a6e8 353d c017 eabc
00000170: 22dc f6bc c074 5ebb 64dc 0abc 61e2 5dbc
00000180: 97ed 01bd 1eca 9b3c 3307 5d3d 206b 09bc
00000190: d81e 083d 1456 203d bf31 5039 63f2 4abd
000001a0: 1a83 5fbc f52e 4e3d 8ac5 27bd aa1f 80bc
000001b0: 2d68 233d 6d53 5abd ce30 0a3d 7486 c73c
000001c0: 5257 e73c f70b ecbc 1136 14bd 8acc 953c
000001d0: 7f38 f7bc 8d20 483c 2e20 203d 6c4b 49bc
000001e0: 5885 63bd c86b 63bd a0c3 2bb9 4c31 c6bc
000001f0: 2235 43bd e568 b23c 9fe5 5e3d 81db c2bc
00000200: c9bd 01bd 2383 16bd 6e74 b6bc 8de1 753c
00000210: 0455 623c 4a48 46bc 89d0 74bd 3632 d03c
00000220: 426c f03c c600 143b cbdf 0cbd 3341 ebbc
00000230: a2d4 dbbb 22ab 9ebd 1ddb b53c 6f67 54b9
00000240: f48f a1bc 9744 83bd 5963 553c d6d4 123d
00000250: 6ce6 ea3c 75cc b03b 3e01 78bc 2f1e bb3c
00000260: 63f9 bd3c 4082 1dbb fff1 1cbd 8305 913d
00000270: b134 3a3c 6fbe e9bb f685 903c f946 a33c
00000280: fc1f 72bd fca9 3e3d ee54 13bc 5d63 2b3c
00000290: 3caa 52bd e2ff fd3b 4289 543c cd68 43bd
000002a0: cc94 3cba e07f 8c3c 0806 1d3d 8825 02bd
000002b0: 1245 2bbd 821b 1c3c 0878 123c 0731 053d
000002c0: 782a 0a3c 2ac2 883d 0bae 11bd cb02 2bbd
000002d0: f899 7e3d ceae 493d 79e7 01bc cdaa 853c
000002e0: c44d 433d af08 663b 4686 cdbc 1948 edba
000002f0: fc7a 30bd 9651 1bbd 4d34 81bd 365e 82bd
00000300: 70f0 7ebc f98a 183d 2abf 83bd e6ae 30bc
00000310: 2b5c 1dba be70 9a3c b2b5 0f3c 4d3d 0b3d
00000320: b070 ce3c 4da6 1cbc 09fa ee3b 289f a53c
00000330: d4bd 80bc e823 cfbc 0adc 903c f4d3 9bbd
00000340: 66a4 b9bb 5db0 e43c 5c5a 63bd eec8 833c
00000350: 948f 8338 ce6d c53c 1743 c7bc 2fa1 b7bc
00000360: fb52 4cbc 44c9 063d 085f a53a fecb 413d
00000370: 20b9 903d 7e94 26bd 67b9 efbc ad51 173c
00000380: 3b7e 2f3d 3b20 49ba 9dc4 233c 4496 1c3d
00000390: be33 b63c 555c 0d3d 5565 a5bd 8a9e dcbc
000003a0: 90ee dd3c e96a 81bb 7a54 413d 7d80 573d
000003b0: 74ec 81bd 0b0d 6c3d 7ba6 6e3d 4484 94bc
000003c0: 7aa6 8c3d 95dd 603b d083 473d cd8a fb3c
000003d0: 2000 ae3c e597 4f3d 5ee4 09bd 7878 49bb
000003e0: e512 3e3c d7e1 d0bc d17b d3bc 7552 d53c
000003f0: 90ba 843b abb8 37bd cfce 3cbd fe59 fcbc

CONV.8.bias f4 [16]
-0.028800376 -0.051884353 0.0377022 -0.0371119 0.018117044 -0.022135414 0.026309844 -0.058601435
0.054083373 -0.03693832 0.04605392 0.00036558064 -0.0049600936 -0.037717953 0.03821932 0.057666633
00000000: c4ee ebbc b084 54bd 9f6d 1a3d a602 18bd
00000010: 326a 943c 5455 b5bc be87 d73c 0f08 70bd
00000020: 8786 5d3d a34c 17bd 09a3 3c3d 67ab bf39
00000030: 4888 a2bb 247e 1abd dd8b 1c3d d933 6c3d

CONV.9.running_mean f4 [16]
0.019800691 -0.027111953 0.052311305 -0.14328301 -0.15707709 0.10006874 0.12607881 -0.02057151
-0.3374174 -0.22503547 0.14073004 -0.016457008 0.10642594 0.40317023 -0.17227593 0.17741704
00000000: 0f35 a23c e319 debc 6144 563d c8b8 12be
00000010: d1d8 20be d7f0 cc3d ce1a 013e 9585 a8bc
00000020: f9c1 acbe b36f 66be 891b 103e d9d0 86bc
00000030: d8f5 d93d 546c ce3e 1a69 30be d0ac 353e

CONV.9.running_var f4 [16]
0.038911063 0.044289075 0.03331927 0.07284639 0.050044924 0.062227283 0.037793167 0.044514835
0.056203146 0.04681457 0.044022154 0.039873578 0.038855888 0.050412625 0.053557318 0.040561195
00000000: 3561 1f3d 7668 353d c979 083d 7d30 953d
00000010: e8fb 4c3d 09e2 7e3d 02cd 1a3d 3055 363d
00000020: 4535 663d a2c0 3f3d 9350 343d 7a52 233d
00000030: 5a27 1f3d 787d 4e3d eb5e 5b3d 7f23 263d

LIN.0.weight f4 [32, 256]
0.0059036585 0.017365193 -0.025327593 -0.029829586 0.007023278 -0.035276074 0.010081101 0.035270564
-0.048680227 -0.009957726 0.045994565 -0.053638104 0.008012072 -0.057578977 0.045251746 0.03502071
0.05140922 0.057223216 -0.03415606 -0.005382332 -0.00491027 -0.046512086 -0.048955716 0.028358286
-0.040494803 -0.058958188 0.013752188 -0.022817548 0.021535894 0.033936314 0.025182268 -0.030687176
-0.028114678 0.026225196 -0.01097603 -0.025538487 -0.034477457 0.036551993 0.06612984 0.020272048
0.035315357 -0.026532885 0.0071238657 0.050720617 -0.044493504 0.034990497 -0.021286516 -0.045165654
0.0024723532 0.045361664 0.03582461 0.026274806 0.05251752 0.010872844 -0.035591554 -0.019773923
-0.016148653 0.043043498 -0.0036827924 0.049453642 0.02670587 0.06172355 0.0014445373 -0.034593586
0.037252557 0.00047615237 0.055644732 -0.008459393 -0.059720125 -0.050401136 -0.0058079306 -0.027005902
0.056140363 0.04799104 -0.038404565 -0.0062599815 -0.04009905 0.055222876 -0.005746468 -0.04019355
0.008404315 -0.022865511 0.019426368 -0.016391674 -0.056012906 -0.0053897374 0.025084855 0.002968544
-0.047948923 -0.007453201 -0.00902515 0.04996159 0.020605199 -0.012768225 -0.008306332 -0.060083658
-0.0012200106 0.049592573 -0.010826035 -0.039731737 0.02241606 -0.059059247 0.020009294 -0.011241103
-0.0440107 0.050563753 -0.02301454 0.019983415 -0.060073383 -0.049179375 0.03552485 0.023485346
-0.058049906 -0.03556257 0.039168354 0.06059123 -0.02758981 0.049918678 -0.004692163 0.053151984
-0.0014078494 0.00059249334 0.05130397 -0.0056458423 -0.05119009 -0.033835 0.05181599 0.05324845
0.039972633 0.034146767 0.0055137235 0.018999044 -0.027615516 -0.053356804 0.00068582623 -0.036080565
-0.004005908 0.020484054 -0.053336237 0.05947492 0.052977685 -0.0107166115 0.036609206 0.019141877
0.044342667 -0.040924974 -0.008427554 0.07044796 -0.060020853 -0.014179941 0.012037277 -0.00857896
-0.04781289 0.025585542 0.029419234 0.0040829596 0.028119924 -0.044856858 -0.027534368 -0.047939718
0.0038124206 0.045210265 0.034471057 0.06251906 0.02614735 -0.033818003 -0.017715214 -0.026954893
0.018655403 -0.0036360063 -0.007806898 0.030077586 0.02417912 0.026017277 0.0026867376 -0.057878662
0.050073974 0.011976082 0.03989089 0.0149713885 -0.043173283 0.0011752893 -0.05158807 0.0113638155
0.05348801 -0.02573771 -0.052594766 0.019998094 -0.026807405 0.038037136 -0.010029503 0.05040272
-0.016423054 -0.058460962 -0.02229418 0.043085814 -0.009107098 0.002024931 -0.034522668 -0.061573002
-0.020590851 -0.056671686 -0.015364714 -0.051606633 -0.021595294 0.0025087204 -0.018506823 0.022473712
0.03844268 -0.049662616 -0.0025237387 0.034093563 0.0026058916 -0.017711518 -0.042503566 -0.055741407
-0.033671405 -0.033637676 0.036551144 0.015538815 -0.06592532 -0.05834847 0.001583632 -0.028287342
0.03871667 -0.048766635 0.006189846 0.056687336 -0.035620317 0.039422784 0.03365706 0.043525357
0.0011980241 -0.042183433 -0.024139602 0.021128403 0.056945655 -0.006826844 -0.024075761 -0.042775705
0.019068152 0.05701721 0.025938919 0.0119049 -0.00024933688 0.036549453 0.052122645 0.007915492
0.016352832 0.038901392 -0.028690238 -0.031098373 0.008587478 -0.009517566 0.01714149 -0.04403588
00000000: 7a73 c13b 7341 8e3c d07b cfbc 2d5d f4bc
00000010: 8723 e63b a57d 10bd 342b 253c de77 103d
00000020: eb64 47bd bb25 23bc cc64 3c3d a1b3 5bbd
00000030: 1145 033c efd7 6bbd e559 393d e071 0f3d
00000040: 7992 523d e462 6a3d 3ae7 0bbd 465e b0bb
00000050: 55e6 a0bb 7583 3ebd ca85 48bd a34f e83c
00000060: e1dd 25bd 247e 71bd db50 613c deeb babc
00000070: 0b6c b03c ce00 0b3d 0b4b ce3c ac63 fbbc
00000080: c150 e6bc 39d6 d63c ced4 33bc 1736 d1bc
00000090: 3c38 0dbd 8bb7 153d 156f 873d 9111 a63c
000000a0: d6a6 103d 7e5b d9bc 516f e93b 6cc0 4f3d
000000b0: d23e 36bd 3252 0f3d 0f61 aebc 9fff 38bd
000000c0: 3407 223b 27cd 393d d4bc 123d 433e d73c
000000d0: 9c1c 573d 0324 323c 73c8 11bd ecfc a1bc
000000e0: 2e4a 84bc 614e 303d 015b 71bb e78f 4a3d
000000f0: 45c6 da3c d5d1 7c3d a156 bd3a 01b2 0dbd
00000100: 2396 183d 17a4 f939 bbeb 633d 4499 0abc
00000110: 179d 74bd 6c71 4ebd 7450 bebb 7b3b ddbc
00000120: 70f3 653d 4192 443d 1b4e 1dbd 8820 cdbb
00000130: e73e 24bd 6231 623d de4c bcbb fea1 24bd
00000140: 41b2 093c 7450 bbbc 0c24 9f3c d547 86bc
00000150: ca6d 65bd 659c b0bb c17e cd3c e78b 423b
00000160: 1766 44bd fb39 f4bb 39de 13bc 86a4 4c3d
00000170: 3ccc a83c d131 51bc 4817 08bc 481a 76bd
00000180: c3e8 9fba 9521 4b3d af5f 31bc bfbd 22bd
00000190: e3a1 b73c 1ce8 71bd 88ea a33c 9a2c 38bc
000001a0: 9044 34bd f01b 4f3d fd88 bcbc 42b4 a33c
000001b0: 820f 76bd 5070 49bd 8182 113d 5764 c03c
000001c0: bdc5 6dbd 0faa 11bd ff6e 203d 822e 783d
000001d0: 0604 e2bc 8777 4c3d b7c0 99bb e5b5 593d
000001e0: 9687 b8ba 8e51 1b3a 1d24 523d c200 b9bb
000001f0: b3ac 51bd 9296 0abd 013d 543d 0c1b 5a3d
00000200: 58ba 233d 7bdd 0b3d 77ac b43b e2a3 9b3c
00000210: ef39 e2bc aa8c 5abd 05c9 333a 37c9 13bd
00000220: fe43 83bb 2dce a73c 1977 5abd f99b 733d
00000230: 21ff 583d ba94 2fbc 89f3 153d 6dcf 9c3c
00000240: a8a0 353d f2a0 27bd b913 0abc 0547 903d
00000250: 6dd8 75bd fc52 68bc 0038 453c c48e 0cbc
00000260: 73d7 43bd c598 d13c 9b00 f13c 59ca 853b
00000270: c15b e63c d3bb 37bd c18f e1bc 705c 44bd
00000280: ced9 793b 662e 393d 8631 0d3d fe09 803d
00000290: f832 d63c bf84 0abd 7f1f 91bc 82d0 dcbc
000002a0: 37d3 983c 104a 6ebb 02d1 ffbb 4565 f63c
000002b0: 4a13 c63c 2f22 d53c fa13 303b 2d12 6dbd
000002c0: 5e1a 4d3d 5437 443c a164 233d 8e4a 753c
000002d0: 78d6 30bd 2a0c 9a3a 034e 53bd 4c2f 3a3c
000002e0: 3e16 5b3d e4d7 d2bc 9c6d 57bd 0bd3 a33c
000002f0: 349b dbbc d4cc 1b3d c952 24bc 1573 4e3d
00000300: a489 86bc c374 6fbd 49a2 b6bc c07a 303d
00000310: f035 15bc b4b4 043b a467 0dbd f933 7cbd
00000320: 25ae a8bc 9220 68bd 48bc 7bbc 7a61 53bd
00000330: 9de8 b0bc 5869 243b 9f9b 97bc ca1a b83c
00000340: 1276 1d3d 076b 4bbd 4f65 25bb b1a5 0b3d
00000350: 9bc7 2a3b bf17 91bc 3818 2ebd 1a51 64bd
00000360: 07eb 09bd a9c7 09bd a7b6 153d 8496 7e3c
00000370: db03 87bd cefe 6ebd df91 cf3a dbba e7bc
00000380: 5f95 1e3d 86bf 47bd 31d4 ca3b fb30 683d
00000390: 9ce6 11bd c979 213d fcdb 093d a547 323d
000003a0: 0507 9d3a 89c8 2cbd 6ac0 c5bc 7915 ad3c
000003b0: d93f 693d b8b3 dfbb 883a c5bc 9435 2fbd
000003c0: d034 9c3c e18a 693d db7d d43c c50c 433c
000003d0: 6eb9 82b9 e1b4 153d 8e7e 553d fbaf 013c
000003e0: 60f6 853c 1157 1f3d ca07 ebbc 04c2 febc
000003f0: 7eb2 0c3c 91ef 1bbc 4f6c 8c3c f85e 34bd

LIN.0.bias f4 [32]
-0.02064842 -0.024308607 -0.0089705475 0.02225857 0.04937944 0.053726394 0.015747752 0.04432177
-0.011830423 0.04151586 0.025830312 0.03920292 0.050164692 0.023927176 0.035902135 -0.010376938
-0.00046819603 0.0066247787 -0.00067836733 -0.01373785 0.02152471 0.009313694 -0.011790564 -0.0062957713
0.055092447 0.054836232 0.02009375 -0.032060336 -0.03649543 -0.04062989 -0.010564339 -0.04592849
00000000: e026 a9bc d822 c7bc 34f9 12bc 9b57 b63c
00000010: 1842 4a3d 3510 5c3d 6e01 813c bf8a 353d
00000020: 64d4 41bc 890c 2a3d 179a d33c 3e93 203d
00000030: 7e79 4d3d ed02 c43c 1e0e 133d 0804 2abc
00000040: 3578 f5b9 ac14 d93b 76d4 31ba b814 61bc
00000050: 9754 b03c 7798 183c 362d 41bc c24c cebb
00000060: 9ea8 613d f59b 603d a69b a43c b351 03bd
00000070: 3b7c 15bd 876b 26bd 0d16 2dbc 831f 3cbd

LIN.2.weight f4 [6, 32]
-0.045820963 -0.19843766 0.26878726 0.20577234 -0.3261357 0.05466133 0.19318512 0.2699396
-0.07891798 0.16999385 -0.10197676 0.18385279 0.22414874 -0.15087777 -0.19500707 0.21826655
-0.24031486 -0.19944556 0.093532234 -0.30871534 -0.14865695 0.018541792 0.1384871 0.18511376
-0.07614199 -0.19516689 0.032984998 0.06346022 -0.1765216 -0.1299617 0.14071594 0.18577322
-0.17585647 0.27719477 -0.3392121 0.113281414 -0.18862087 -0.17361616 0.22539581 0.37069532
0.08077585 -0.1998786 -0.04187199 0.23020585 -0.023556406 0.059504643 0.13308288 -0.14335555
-0.26216137 -0.3383109 -0.044773746 0.12800713 -0.097799435 -0.10100581 0.18660523 -0.27763975
0.023307117 0.2724186 0.23082563 0.010810568 -0.13380373 0.13664709 -0.256654 0.20623411
0.1501294 0.19456884 0.03499059 -0.083441965 -0.05494476 -0.19723119 -0.101771735 -0.1777953
-0.020892935 -0.16045646 -0.1944979 -0.1318608 0.22546797 -0.16607581 0.11818933 -0.15045676
0.23522632 -0.32149667 -0.043012068 0.07168718 0.024974192 0.26223361 -0.057720374 0.35492954
0.1518343 -0.21491721 0.433243 0.048284914 -0.05559425 -0.09344915 0.08672562 -0.25960374
0.022396836 0.038877577 -0.18386279 -0.10594538 0.29664567 -0.27652824 0.2080798 -0.046138197
0.116638295 0.029813236 0.2948071 -0.16020384 -0.25185177 -0.2130003 -0.17182991 -0.25062588
-0.17701235 0.23448528 -0.080702126 0.2227999 0.21903667 0.24237461 -0.26747468 0.29601684
0.14981006 0.0901247 -0.12435942 0.20153058 0.112131864 0.01783011 -0.30673212 -0.2655706
-0.025831284 0.051509038 0.020755522 0.19439411 0.32293254 0.27037734 -0.077888496 -0.30410334
0.0070106834 0.05399803 -0.034950938 -0.12563285 0.2248272 -0.18510519 -0.24750786 -0.11525296
0.088214144 0.36847407 -0.08331192 0.22382134 -0.0005454145 -0.097964905 0.23932819 -0.3749714
-0.0059525385 0.4845518 -0.03888534 -0.12908132 0.012059507 -0.13210039 -0.010582811 -0.1176167
-0.15653771 -0.061731294 0.22090954 0.016000444 -0.01650954 0.111663006 0.14711349 -0.22601387
0.09741731 -0.19482853 0.22700652 0.14855057 0.052637722 0.30266702 0.06025035 -0.106538415
-0.022843773 0.27564147 -0.02589747 -0.12311017 0.009704791 -0.020169387 -0.009086266 -0.009228453
0.17226616 -0.35336983 -0.30034158 0.250753 -0.040866986 -0.018359998 -0.0055204243 0.222207
00000000: c3ae 3bbd 3e33 4bbe 7c9e 893e fcb5 523e
00000010: 42fb a6be 8fe4 5f3d 52d2 453e 8635 8a3e
00000020: c09f a1bd de12 2e3e 31d9 d0bd e843 3c3e
00000030: 3f87 653e b47f 1abe efaf 47be 4481 5f3e
00000040: 1915 76be 753b 4cbe d48d bf3d f00f 9ebe
00000050: 8739 18be f5e4 973c 90cf 0d3e 768e 3d3e
00000060: 55f0 9bbd d4d9 47be 471b 073d 6ff7 813d
00000070: 14c2 34be ae14 05be d717 103e 563b 3e3e
00000080: b813 34be 79ec 8d3e 35ad adbe 1600 e83d
00000090: d425 41be 6fc8 31be 29ce 663e c7cb bd3e
000000a0: cf6d a53d faac 4cbe f781 2bbd 15bb 6b3e
000000b0: 5df9 c0bc 24bb 733d e146 083e cccb 12be
000000c0: 043a 86be 1637 adbe ad64 37bd 4d14 033e
000000d0: 124b c8bd 22dc cebd 7115 3f3e cc26 8ebe
000000e0: 91ee be3c 737a 8b3e 8e5d 6c3e cf1e 313c
000000f0: d803 09be 37ed 0b3e 2768 83be 092f 533e
00000100: 85bb 193e 0e3d 473e 4b52 0f3d 9fe3 aabd
00000110: c20d 61bd f9f6 49be b36d d0bd f90f 36be
00000120: a927 abbc b34e 24be 752a 47be 8406 07be
00000130: 13e1 663e c70f 2abe 3f0d f23d 5611 1abe
00000140: 2bdf 703e 369b a4be 6c2d 30bd bad0 923d
00000150: ad96 cc3c 7c43 863e 336c 6cbd 53b9 b53e
00000160: 737a 1b3e 4213 5cbe 07d2 dd3e 67c6 453d
00000170: ccb6 63bd 4562 bfbd 349d b13d c8ea 84be
00000180: 9279 b73c 183e 1f3d 8746 3cbe e4f9 d8bd
00000190: f1e1 973e 1c95 8dbe df12 553e 68fb 3cbd
000001a0: 0fe0 ee3d e33a f43c f5f0 963e 7a0c 24be
000001b0: b7f2 80be c01c 5abe 2ef4 2fbe 0952 80be
000001c0: ba42 35be e91c 703e 2847 a5bd a825 643e
000001d0: 264b 603e 0d31 783e 71f2 88be 858f 973e
000001e0: cf67 193e 4c93 b83d 27b0 febd 085e 4e3e
000001f0: 64a5 e53d 7310 923c fe0b 9dbe dff8 87be
00000200: 219c d3bc 24fb 523d 7c07 aa3c 400f 473e
00000210: 6a57 a53e e66e 8a3e 0184 9fbd 6fb3 9bbe
00000220: e0b9 e53b 0a2d 5d3d b728 0fbd e6a5 00be
00000230: 1a39 663e 378c 3dbe b372 7dbe be09 ecbd
00000240: 9ea9 b43d a2a8 bc3e 719f aabd 6c31 653e
00000250: 26fa 0eba d3a1 c8bd 7312 753e 40fc bfbe
00000260: 830d c3bb 2c17 f83e 3c46 1fbd e52d 04be
00000270: 3d95 453c 5345 07be 8763 2dbc 06e1 f0bd
00000280: 6c4b 20be f4d9 7cbd 1c36 623e 5d13 833c
00000290: 043f 87bc 93af e43d eba4 163e 2e70 67be
000002a0: ba82 c73d 2181 47be 6674 683e a41d 183e
000002b0: a79a 573d 2cf7 9a3e 12c9 763d d030 dabd
000002c0: dd22 bbbc e120 8d3e ee26 d4bc 2f21 fcbd
000002d0: d800 1f3c 453a a5bc 90de 14bc f032 17bc
000002e0: 8a66 303e e4ec b4be 5fc6 99be b262 803e
000002f0: 2464 27bd b567 96bc ade4 b4bb 3b8a 633e

LIN.2.bias f4 [6]
-0.025945347 -0.11647483 0.06387254 -0.116783306 -0.10698993 0.04087089
00000000: 568b d4bc 5b8a eebd 9bcf 823d 162c efbd
00000010: 891d dbbd 3c68 273d
